examples/PyTorchSample/torchMNISTModel.pth (torch, 477336 bytes, 6 tensors)

weight f4 [128, 784]
00000000: 2109 64bc 8c87 0fbd 27fb 81bc c258 0ebd
00000010: f32c d23c ee72 463b 71b4 f2bc 570f 333c
00000020: 45c2 1bbc 4dc4 0dbd 7abd 9e3c 8038 18bb
00000030: 738f b43c 572c 123c dcfe ce3b 5866 0c3d
00000040: a172 e0bc 6ac1 92bc 1665 013d aecc e0bc
00000050: 0ed3 1a3c 654b c03b 5c3c fe3c 8ebc bcbc
00000060: b047 05bd 8584 99bc 1ef4 023d 9cf8 08bd
00000070: c03d 09bc 15a4 9e3c 2541 043b 0145 f5ba
00000080: 778b 21bc b887 7f3c 25e7 5abc 371c 48bc
00000090: 3cc1 e13c feb2 f43c 5349 973b 8a3b e4bb
000000a0: fa31 e1bc dcc5 5fbb 15a4 973c 9a78 aa3c
000000b0: 2f29 103d e5f8 903c 4117 d83b b84a 5fbb
000000c0: 3c93 f3bc 1087 9bbc ae91 153c b758 9e3a
000000d0: cd5b 033d 5325 bbbb a161 533c 9303 bfba
000000e0: 8139 43bb 4a6b d4ba 813d aebc 1352 22bb
000000f0: a583 56bb ba61 d73c 252a c4bc 23ed f83c
00000100: 9a98 e43c f5c9 b83c e1d1 d03c 0381 a7bc
00000110: f217 61bd d2b7 84bd 5a9e cebc 2bd5 4ebd
00000120: 0095 59bd 3f03 85bd cc95 82bd 2ba6 7cbd
00000130: 1b9f fcbc 6e24 563b a595 5a3b 570e 843c
00000140: 07c2 083d 0542 8dbc daaf d5bc 3840 5cbb
00000150: dc1c fd3a 334d be3c ae44 f7bb 8aab eb3b
00000160: c3c1 c73c 2edc 03bd b3a8 cabc 0c3e b9bc
00000170: 5ff4 073d 371a 56bb 9112 bb3c 4044 a7bd
00000180: a4bb 8abd 6954 e5bd 2d25 cebd 6488 92bd
00000190: 1a52 90bd 022d 23bd c774 a6bd 78c1 97bd
000001a0: d6bd 8cbd ae52 063c 0732 be3c 706b 0dbd
000001b0: d7e0 85bc c557 9fbc e752 933c b7e9 0cbc
000001c0: 6aff 0cbd 37e5 913b 3374 f5bc a51a f63c
000001d0: 6e39 333b aa3b 3fbc 1c33 dd3c 1c27 863d
000001e0: 77c7 9e3d b822 683d 1d0e 803d a1af 293d
000001f0: 0e70 22bd 692c 30bd 35dd c8bd 3f03 d2bd
00000200: 053c e3bd 42e4 65bd ca8d aebd fb26 51bd
00000210: d8b5 65bd de6d 153d 5a13 ad3d 4202 e93c
00000220: c251 8abd be0e b63c aebf 9d3b d046 043d
00000230: 2a3b dcbc b7f3 c83a 578f 493c 0cd9 c6bc
00000240: 9afb 873d 9c17 923d f789 473d a022 55bd
00000250: 89b1 d5bd d0f0 43bd d3e7 3c3c dc57 73bd
00000260: afd9 a9bd fac3 f4bd c1c9 aebd 6cec 86bd
00000270: 281e f9bd a7f2 c2bd d7ad a2bd 03fd 92bd
00000280: 524c fb3a 4bb2 7c3c bf4a 463d db3d a73c
00000290: 2721 0cbd d356 96bd 9a02 c33d 1ae6 99bc
000002a0: 3562 86bc a3de 103d 216f 713c 4c84 aebc
000002b0: 4d7e 6f3d 2418 813d 4d3d 473d dc4d 44bc
000002c0: 03b1 64bd 7fa2 bebd 61d0 d2bd 7df5 fdbd
000002d0: e3f7 afbd fda3 b9bd 3e76 bbbd abea 0fbe
000002e0: 5c66 b1bd cfd8 a3bd d72c 8bbd 2c26 75bd
000002f0: 371c 31bd 9e78 f03c 4d59 11bd eb07 08bd
00000300: 1065 cdbd e1b8 3ebd b071 0d3d 61c8 c33c
00000310: 6a7f c43c d35a f0bc 7f5d fcbc e492 32bd
00000320: 5590 003d 7de8 953c 7991 773d 89ea 313c
00000330: 37e6 c4bc b705 163c 8bdc 623d d93a 37bd
00000340: 4e2e c8bd 96b7 e2bd 823c b4bd 7f23 09be
00000350: 2335 c0bd 73d3 c2bd aa1c 9abd 3c8c 00be
00000360: bcfa bfbd 967c d03c 41fd 763c 82ec 3dbd
00000370: d524 4fbd e861 913d 9d8b 463d a144 cabc
00000380: 93cd a23a 0579 043e 10b6 a23d b56b 823d
00000390: 5b99 a43d db88 a53d 6b3d 7f3d bbae 5c3d
000003a0: a8ec 9f3d be30 263d bfea 993d 0c38 c73c
000003b0: 773e 02bd 6cd4 45bd 69b1 a5bd b0b0 b4bc
000003c0: 2c1d 513c 9e44 7dbd cabc 2abd 0b16 a9bd
000003d0: 9fa8 8fbd b9fd b43c 2d2c 893c cdc4 a43d
000003e0: 9c99 823d 4306 fe3c b355 e9bc 4576 b5bc
000003f0: 65ba 113d 4c25 8a3e 5d64 923d 72b5 a03d
-0.013918192 -0.035041377 -0.01586683 -0.034752615 0.0256562 0.0030280906 -0.029627057 0.01092895
-0.009506767 -0.034611035 0.019377459 -0.0023227036 0.022041058 0.008921704 0.0063170027 0.03427729
-0.02739841 -0.017914493 0.031590544 -0.027441349 0.009449733 0.0058683627 0.031034641 -0.023039129
-0.03253907 -0.018739948 0.03197109 -0.033440217 -0.008376539 0.01936535 0.002018043 -0.0018712581
-0.009859911 0.015596323 -0.013360773 -0.012213758 0.027557962 0.029870506 0.004616895 -0.0069651054
-0.027489651 -0.0034145033 0.018510858 0.02080946 0.035195526 0.017696807 0.006594569 -0.0034071635
-0.029733293 -0.018985301 0.009128971 0.0012080882 0.03206997 -0.0057112365 0.0129016945 -0.0014573209
-0.0029788914 -0.0016206291 -0.021269562 -0.0024768158 -0.0032732275 0.026291717 -0.023945877 0.030386513
0.027904797 0.022557238 0.025490703 -0.02044726 -0.054954477 -0.064803734 -0.025221992 -0.05049626
-0.053120613 -0.0649476 -0.06376228 -0.061681908 -0.030837586 0.0032675522 0.0033353355 0.016120119
0.033388164 -0.017243395 -0.02608483 -0.0033607613 0.0019310969 0.02323017 -0.007546029 0.00719208
0.024384385 -0.0321924 -0.024738645 -0.022612594 0.033192035 -0.0032669434 0.022836002 -0.081673145
-0.06774071 -0.111977406 -0.100656845 -0.07154921 -0.0704691 -0.039837845 -0.08127742 -0.07409948
-0.06872146 0.008198423 0.023217214 -0.03452629 -0.016342564 -0.019451031 0.017983867 -0.008600644
-0.03442327 0.0044523734 -0.029962635 0.030042002 0.0027347463 -0.01167194 0.02700191 0.06550428
0.07752889 0.056673735 0.06252692 0.04142726 -0.039657645 -0.043011103 -0.09807817 -0.102545254
-0.11095432 -0.056125887 -0.08523138 -0.051062565 -0.056081623 0.03648173 0.08450957 0.02844346
-0.06753875 0.022223826 0.0048141098 0.032294095 -0.02688368 0.0015331422 0.012302241 -0.024273418
0.06639786 0.071334094 0.048715558 -0.052034974 -0.10434253 -0.04783708 0.011529881 -0.05940996
-0.08293473 -0.11951442 -0.08534575 -0.06588063 -0.12163955 -0.095189385 -0.079433136 -0.071771644
0.0019172525 0.015423368 0.048411127 0.020415237 -0.034211304 -0.07340779 0.095219806 -0.018786479
-0.01640425 0.035368573 0.014735968 -0.021303318 0.05847006 0.063034326 0.048642445 -0.011981454
-0.055832874 -0.093083374 -0.10293651 -0.12400339 -0.085922025 -0.090644814 -0.09153412 -0.14054362
-0.086621016 -0.08000337 -0.06795662 -0.059850857 -0.0432398 0.02935439 -0.035485554 -0.033210676
-0.10029042 -0.046563033 0.03453225 0.023899259 0.023986537 -0.029340183 -0.030806301 -0.043597117
0.031387646 0.018299336 0.060441468 0.01085914 -0.024035556 0.009156636 0.055386107 -0.044733856
-0.09774457 -0.110701725 -0.088006034 -0.13392447 -0.09385135 -0.09512987 -0.075249985 -0.12553495
-0.09373996 0.025450032 0.015075029 -0.04636813 -0.050572235 0.07098752 0.04847299 -0.024690928
0.0012420885 0.1293679 0.07944882 0.063682 0.08037063 0.08082744 0.062314432 0.053877573
0.078088105 0.040573828 0.075154774 0.024318717 -0.031797852 -0.048298284 -0.08090479 -0.022056907
0.012763303 -0.061833017 -0.04168395 -0.082561575 -0.07014584 0.02209364 0.016744697 0.08045349
0.06376955 0.031008845 -0.028483247 -0.022151122 0.03557815 0.2698158 0.07148049 0.07847108

bias f4 [128]
00000000: a248 66bd ecd4 83bd f8f0 98be 340b 81be
00000010: b01b 81be a674 083f cdda 6bbe 1880 b3bd
00000020: 12aa 2cbf 9c2f 75be 0930 e33d f0f2 75be
00000030: 6a99 2f3e cc8a 34be bd53 923d 37f7 3b3e
00000040: 563d 88bd f495 26bf f0f2 83be 37eb 4dbe
00000050: 3c13 19bd 4812 80bd 7fba ed3e 6232 a8bd
00000060: 5ed2 943d 6b54 f2bd 5bf0 ce3e 4636 14bf
00000070: fc09 36be fcab a73d 53cb 65be 52a6 59bd
00000080: ffd4 25bd 995c 65be 7fdd 20bd 9706 f1bc
00000090: a40a 3b3e 0a37 acbd 150d afbd 85a2 513e
000000a0: 6d93 043e 8719 adbd 4be6 3ebf bd15 51be
000000b0: 85d8 e1bd 5b4d 0dbf ea78 c8bd c83a e2be
000000c0: 9de1 a23d 3abf 683d 8df4 443f 6a0d e8bd
000000d0: ed0c 87bd 6434 a9be 3a3b 13bf f35a 5d3e
000000e0: e5d1 33bf 8cc9 41bf d24b 80be 2858 28bd
000000f0: de3e 923d 021a d8be 719a 6dbd 3c84 d63e
00000100: 086f 2abd 1d90 86bd ac87 893e 2bda 4dbd
00000110: 0c6b f0bd 7f2a c0bd f710 373d aee0 c3be
00000120: c45f 4dbe ea5d 9dba d85a 33bf fb3c bdbe
00000130: 91ed 89be 2148 1b3c 5966 29bf aa8e 2d3e
00000140: fee9 aabd 35b1 cdbd 99dc 6cbd 1394 c13e
00000150: 0686 f93e cad2 abbe bb59 4bbd fbc6 a73e
00000160: 0272 5dbd b7a2 31be 751a 56bd 142f 6cbe
00000170: f4f0 b7be 027c 3abd 975a 253e 96d1 4ebe
00000180: 2c9c 6e3e 39d6 c0bd 64c9 d9be 2a7a babd
00000190: ee39 0fbf ab9d 5fbf 7145 48be 1b31 853d
000001a0: f5a9 06bf 8495 2abe e4a3 18bf 0409 95be
000001b0: 0db3 c4bd 684c cabe 498b a0be db73 90bd
000001c0: 58e3 40bd 08d0 c8bc 4dc1 f3bc b68b 393e
000001d0: af07 113e 5dcb 11be 9937 683e afe9 babd
000001e0: 841e 9cbd 3589 933e 5b74 afbe e619 f5be
000001f0: 132f 58bd 6f64 2abe 195e e8bd 0291 3dbe
-0.05622161 -0.06437096 -0.29871345 -0.2520386 -0.25216436 0.5330299 -0.23032685 -0.08764666
-0.67447007 -0.23943943 0.11093146 -0.24018455 0.17148367 -0.17631072 0.07144878 0.18356024
-0.06652324 -0.6507256 -0.25771284 -0.20109259 -0.03737186 -0.06253487 0.46431348 -0.08212735
0.07266687 -0.11832508 0.40417752 -0.57895315 -0.17777246 0.081871 -0.22440843 -0.05313713
-0.040486332 -0.22398604 -0.039273735 -0.029422088 0.18265778 -0.08408935 -0.08547417 0.20472153
0.12946863 -0.084521346 -0.7457015 -0.20418449 -0.11027626 -0.5519616 -0.097886875 -0.44185472
0.079531886 0.056822993 0.76935655 -0.113306835 -0.06594262 -0.33047783 -0.5751225 0.21616726
-0.7024215 -0.7569816 -0.25057846 -0.041099697 0.07140897 -0.42207342 -0.058008615 0.41897762
-0.041609794 -0.06570456 0.26861322 -0.05025689 -0.117391676 -0.093831055 0.044693913 -0.38257354
-0.20056063 -0.0012006138 -0.7006049 -0.36960587 -0.2693906 0.009477646 -0.66171795 0.16948953
-0.08345412 -0.10043565 -0.057827566 0.37808284 0.48735064 -0.33559257 -0.04964612 0.32768998
-0.054063804 -0.17347227 -0.052271325 -0.23064834 -0.3592602 -0.04552842 0.16147839 -0.20197138
0.23301762 -0.0941586 -0.4253646 -0.09105332 -0.5594777 -0.8734996 -0.1955774 0.06503507
-0.52603084 -0.16658598 -0.5962508 -0.2910844 -0.09604464 -0.39511418 -0.31356266 -0.07053348
-0.047091812 -0.02451326 -0.029755259 0.18119702 0.14163087 -0.14237733 0.22677459 -0.09126603
-0.07623008 0.28815618 -0.3426846 -0.4787132 -0.05277927 -0.16639875 -0.11346073 -0.18512347

weight f4 [128, 128]
00000000: 27b5 e33b 9c74 76bc 016e 903d cbc9 afbe
00000010: 9564 8fbd 5f21 99be f9a3 2dbf 8992 d03d
00000020: bf29 203e 2a0d 973e c6df 14bf a9df 063c
00000030: 43f3 7a3e 416c 4e3e 944c 07bf efbf d9be
00000040: 79fc fcbd c0dd 6abe 6d38 b63d d620 2bbe
00000050: 9e0e 79bf 238e b23c 7e75 70be 9360 f7bc
00000060: 4dd1 c2be f13c 92be d208 eabe 5dae 11bf
00000070: 4dfd e23e 02c2 28be 9545 29bf 6c57 a03c
00000080: d4bd a539 5192 c8be fdbc a03d 313e fdbd
00000090: 7322 b53e 7a11 993d 8a6d 21bc 6232 5cbf
000000a0: 444c 64bd f79a fbbd e785 e43d 04c1 25be
000000b0: 17d8 01be 3feb 33be 94a5 7cbe d3e0 9ebe
000000c0: bdcf ccbe a5f5 bcbd 6504 a5bd b458 b6bd
000000d0: c3f2 083d e0f6 8f3e 2f96 52bf 6b0c ef3d
000000e0: 2b3c 4abf 8575 cf3d 3ba6 083f f739 b1bd
000000f0: 023d dbbd bf45 82be c230 5dbd 76fd 9cbe
00000100: 464b 043e fc37 82bf 050a cbbe c03a f9b8
00000110: 943a c3be 8dc2 35bf 5090 a63e cdc6 fabd
00000120: fb9c d0bd 870b fbbe d803 77be 6f00 ccbc
00000130: de62 c13e 04ac c9bd ed60 39bc 661a 7dbf
00000140: 2201 16bd 7627 10bf b6e5 043e e9bb 32bf
00000150: 8fb5 023f f993 9fbe 3f48 3fbd ba5c acbe
00000160: c10e 003d 1a66 193f f031 7b3c 7177 cebd
00000170: 9aaf 2e3f e5c0 14bd bed6 00bf f993 d9bd
00000180: 0a03 1ebf 4edc b4be 29d7 a33e 8384 f5bb
00000190: 255e acbe d76e 913e d647 2c3e ba02 1dbe
000001a0: a754 51bd c940 cf3b b660 af3e 1899 2fbf
000001b0: 29f7 93be a541 11bf 09ed 303d aa65 e63d
000001c0: 11cc 0bbe 1703 e1be 69de 0abf 7183 3c3e
000001d0: 688d 33bf 737f 9dbe 1857 3ebe 4d14 ee3d
000001e0: 7b70 c83c 075f 11be 769c 54bf d9fb 0fbf
000001f0: 1674 ae3d 9c1f cb3e 03fc 14be 5512 f0bd
00000200: 37de 0dbd 5819 34bd 388f abbe e17f ba3c
00000210: 8896 2ebd b2d2 83be abc7 d2bc f928 8ebd
00000220: 0ac2 00be 8684 f5bc 879c fbbe 54d7 86bd
00000230: 77aa a4be 1946 82be 15d7 80be cc98 383e
00000240: 505e 4bbd 24e9 57be 615b 1d3e fe45 70bd
00000250: 6372 d8bd d3dc e9bd cd3c 91be b7ba 0f3e
00000260: a14a be3d f87f e4be e1a6 a5bd 0495 cd3d
00000270: a0ff 413d 68b3 84be 12d1 fcbe 8c04 01be
00000280: 087e 793c 4a5e d3be 2c50 12be 24e0 8a3c
00000290: 1025 c4be 5207 27bd 545b a8bd c59b 11bf
000002a0: cecf 7cbe c789 c93d b6a7 edbe 1356 803b
000002b0: a7d2 193e 3229 62be fdfd fe3c 308a 96be
000002c0: 6ac8 38be 2ac5 d7bd cc7f 6a3e 1050 023e
000002d0: 7f20 babd 52e8 0a3d 24de 32bf 78a1 2dbe
000002e0: cdbc 26be 80ec e9be 050d 25be 9608 c73d
000002f0: ad9e 59bd 0ee8 6abe 3eba ccbd 0141 1a3d
00000300: b4e7 b6bc a360 b8be c752 33be 9b04 82be
00000310: dc49 ac3b 4733 9cbd e041 533d c2d5 f5be
00000320: 63d0 a63d f5df 953d fc38 28bf e254 d4be
00000330: 6f1e 76bd 10e5 8b3e b34c 18be 4a9a 91be
00000340: d86a cabb db13 093e 108e 6cbd e2b4 97be
00000350: ee35 9abe 4b91 2fbd bc61 d7bd d63c 34bd
00000360: 489c 01be a4ed 8bbe 385e d1bd bd01 123e
00000370: 7acd 24bd dcbf d0bb 1f91 953d 5d75 abbe
00000380: 9f7a d6bd 03cf e5be e3f6 1bbe fc54 91bd
00000390: 5687 25bf 1d96 88be a76c d93d 8a59 8cbd
000003a0: 3ddd 8f3b 985f 9fbe c75e 22bf 2b00 cbbe
000003b0: 93db 1abf ce07 a9be 048d 4ebe 9ea9 213b
000003c0: 3a2d 9b3d 3634 463e ca9b 1bbe 2a13 45be
000003d0: 8cf9 35bf 37fb 4fbe abae 38be b814 debd
000003e0: 189b 57bc 09b9 0cbe 8500 dcbe 1416 b7be
000003f0: ab33 e13d eaea 16be 6eee 3fbe d571 203e
0.0069490853 -0.01504245 0.070522316 -0.34333643 -0.070016064 -0.29908273 -0.6782833 0.10184199
0.15640925 0.2950223 -0.5815395 0.008232036 0.2450686 0.20158483 -0.52851224 -0.42529246
-0.12352843 -0.22936153 0.08897481 -0.16711745 -0.9728793 0.021796292 -0.2348232 -0.030197417
-0.3805031 -0.2856212 -0.45709854 -0.5690668 0.44333878 -0.16480258 -0.661218 0.019572936
0.00031612685 -0.3917413 0.07848547 -0.12365378 0.35377845 0.074740365 -0.009852776 -0.8601438
-0.055736795 -0.122854166 0.11158352 -0.16186911 -0.12680088 -0.17570208 -0.24672538 -0.31030902
-0.40002242 -0.092265405 -0.08057479 -0.089036375 0.03343464 0.28118038 -0.8226041 0.116722904
-0.7899806 0.10129837 0.5337865 -0.08653634 -0.10704996 -0.25443837 -0.054001577 -0.30662125
0.1291934 -1.0173335 -0.39656082 -0.00011884188 -0.3813063 -0.70999986 0.32531977 -0.122449495
-0.10186192 -0.49032232 -0.2412256 -0.02490255 0.37770742 -0.098472625 -0.011314613 -0.98868406
-0.036622174 -0.5631021 0.12978253 -0.6981798 0.51058286 -0.31167582 -0.04669976 -0.33664495
0.03126407 0.5992142 0.01533173 -0.100813754 0.68236697 -0.03631677 -0.5032767 -0.10623927
-0.6172339 -0.3532433 0.32000092 -0.0074926033 -0.33665577 0.28404877 0.16824278 -0.15333071
-0.05110612 0.0063248617 0.34253472 -0.6859298 -0.28899506 -0.5674079 0.043194804 0.1124986
-0.13652064 -0.4394767 -0.5424562 0.18409516 -0.70137644 -0.307613 -0.18587911 0.11624966
0.024467697 -0.14196406 -0.8305124 -0.56243664 0.085182354 0.39672554 -0.1454926 -0.117222466
-0.03463575 -0.043969482 -0.33507705 0.022766056 -0.042624027 -0.25746685 -0.025729975 -0.06941409
-0.1257402 -0.029970419 -0.49142858 -0.06584039 -0.32161304 -0.25444105 -0.25164095 0.18027037
-0.04965049 -0.2108503 0.1536689 -0.0586605 -0.105686925 -0.11419072 -0.283667 0.1403607
0.09291578 -0.44628882 -0.0808847 0.10038188 0.047362924 -0.25918126 -0.49378258 -0.12599391
0.015227802 -0.41282874 -0.14288396 0.016952582 -0.38309526 -0.040778466 -0.082205445 -0.5687831
-0.24688646 0.09840732 -0.46417016 0.003916511 0.15021764 -0.22086027 0.03112697 -0.29402304
-0.18045202 -0.10535653 0.22900313 0.12725854 -0.090882294 0.033912964 -0.6987021 -0.16956127
-0.1628296 -0.45688248 -0.16118248 0.097184345 -0.05312984 -0.22940084 -0.099964604 0.03765965
-0.022327282 -0.36011228 -0.17512046 -0.2539414 0.005257828 -0.07626968 0.051576495 -0.48014647
0.08145215 0.07318107 -0.6571195 -0.4147101 -0.060087617 0.27323198 -0.14873008 -0.28438026
-0.0061772875 0.1338648 -0.05775267 -0.2963019 -0.3011927 -0.04286317 -0.10516688 -0.04400333
-0.12657273 -0.27329743 -0.10223049 0.14258476 -0.04023502 -0.0063705277 0.0730307 -0.3348798
-0.10472607 -0.448845 -0.15230899 -0.070962876 -0.6465963 -0.26677027 0.10616427 -0.06853016
0.0043903873 -0.3112762 -0.6342587 -0.39648566 -0.60491294 -0.33013767 -0.2017098 0.002466775
0.07576986 0.19355854 -0.15196148 -0.19245592 -0.71083903 -0.20310675 -0.1803538 -0.108437955
-0.013159536 -0.1374246 -0.42969146 -0.35759032 0.10996183 -0.1473805 -0.18743297 0.15668423

bias f4 [128]
00000000: 164e 55bf 17ee 0fbf c058 82bf 481a 5dbe
00000010: 8244 eabe f303 b0be 1c61 76bf a75c 3ebf
00000020: c59a 54bd d5e1 35bf b141 e1be 7399 25be
00000030: 5e60 ccbe 2c2d 0abf 21f0 c8be 5c27 24bf
00000040: f456 07bf 665e e2be 810a 103e d146 54bf
00000050: 1e60 c9be c06b 39bf 7aef b1be 478b 1cbf
00000060: 36e2 1d3e e48d 2dbe ff30 a53e dc46 30bf
00000070: a44e 92bf 1bac 45bf 9c70 6bbe a8e0 c5be
00000080: 53e7 dabe dd71 f2be 763e 5dbf 64fa 9abe
00000090: 714f d1be 7a3a 24bc 783e 2c3e 1eaf 33bf
000000a0: dfdf 75be 895a 0dbf f79d d93e e4be 063f
000000b0: 1619 5cbf c278 583e 0d91 c6bf 6f9e 9abf
000000c0: 932a 28bf 55c5 bbbe a601 303e 4205 3cbf
000000d0: 3358 6fbf 3b8f 41bf 58c3 94be ab53 bbbe
000000e0: c4f8 3dbf cb79 febe e4cd 37bf 3646 52bf
000000f0: 16c4 d1be f740 d2be 317c 04bf 8b5d 5ebf
00000100: 42d2 10be d0b0 8ebf 2b8d 01bf 70db 56bf
00000110: aa97 213d cc57 04be 434f f6be c905 4dbf
00000120: d683 1dbf 4c41 21bf f283 1abf 0ade adbe
00000130: 3811 5bbf e44e 1bbf b91c 03bf e203 d93e
00000140: cdfc 823a 3f18 12bf afbc 55be e448 1abf
00000150: d4ec 23bf 2110 30be 4e29 4abf ae30 853e
00000160: 6fce f1be f350 46bf 0c34 14bf 0042 48bf
00000170: 6850 4ebf 2f18 debe d4d0 5abf 61b6 4bbe
00000180: 76ac 2abf 94e3 31bf d8db 46bf 756d 3bbf
00000190: 303e 27bf 6020 c3be 3cfa b2bf fbad 17bf
000001a0: 22e4 2bbf 8aeb b5be 46f2 413f cd11 a3bf
000001b0: 93bb f9be afeb 40bf b3c7 b3bf 467e 26bf
000001c0: 63e0 193f b512 e9be d7c1 d0be e9f3 2cbf
000001d0: 8cbf 56bf 97af 113e 037d 32bf 5590 26bf
000001e0: e056 1cbf 0b2d 07bf 4726 81bf 848a 9fbf
000001f0: 5547 7bbf 7f18 52be 5eca 84bf 22c5 d5be
-0.83322275 -0.5622267 -1.0183334 -0.21592057 -0.45755392 -0.34378013 -0.9624193 -0.74360126
-0.051905412 -0.7104772 -0.4399543 -0.16171817 -0.39917272 -0.53975177 -0.39245704 -0.6412256
-0.52867055 -0.44212645 0.14066507 -0.8292056 -0.39331144 -0.7243004 -0.3475302 -0.6115002
0.15418324 -0.16948658 0.32263944 -0.6885812 -1.1430249 -0.7721574 -0.22992176 -0.38647962
-0.4275461 -0.47352496 -0.8642343 -0.30269158 -0.4088092 -0.0100237075 0.16820705 -0.7018908
-0.24011181 -0.5521627 0.4250333 0.52635026 -0.8597578 0.21139815 -1.5513016 -1.20796
-0.65689963 -0.3667399 0.17188129 -0.7344552 -0.93493956 -0.7560918 -0.29055285 -0.3658727
-0.7420771 -0.49702296 -0.7179854 -0.82138383 -0.40969914 -0.4106519 -0.51752 -0.86861485
-0.14142707 -1.1147709 -0.5060603 -0.83928585 0.03945128 -0.12924117 -0.48107347 -0.8008695
-0.6152929 -0.6299026 -0.6035758 -0.33958465 -0.8557315 -0.6066725 -0.512157 0.42385775
0.0009993553 -0.57068247 -0.20872758 -0.6026747 -0.64033246 -0.17193653 -0.78969276 0.26013702
-0.4722781 -0.7746727 -0.5789192 -0.7822571 -0.8059144 -0.43377826 -0.85474896 -0.19893791
-0.66669405 -0.6948788 -0.77679205 -0.73213893 -0.65329266 -0.38110638 -1.3982615 -0.5924985
-0.6714498 -0.35531265 0.75760305 -1.2739807 -0.4877592 -0.75359625 -1.4045318 -0.6503643
0.6010801 -0.45522085 -0.40772888 -0.6755968 -0.8388603 0.14227138 -0.69722 -0.65063983
-0.6107006 -0.52803105 -1.0089806 -1.2464147 -0.9815572 -0.20517157 -1.0374258 -0.41751963

weight f4 [10, 128]
00000000: 8dbb 8fbe cfd1 82bc 9e90 0f3e 6d0e 71bd
00000010: eb12 15be 1a9e bebd a0af 34bd 8992 49be
00000020: 63e1 8b3d ebb6 05be e28a 4c3d 1845 9bbd
00000030: 3882 13be 9a09 83be 8cf5 b7bd 033e 6abe
00000040: 52a7 08be 8014 183e 6870 0cbd 0daf 8fbe
00000050: adcb ab3d 5207 28bf 151a 74bd fa45 333e
00000060: 46ee 2abe 3ae8 b73e 8bf0 9c3c ead8 493e
00000070: 1e9c f2bf 69ed 82be fdba 493e 8983 4e3c
00000080: 2266 eabd 9ac7 b9bd e2db 70bd 852a 053e
00000090: deb5 a3bd e223 863e 5549 183e 7a5d 00bf
000000a0: b485 06bc 82c4 92be 8f60 99bc 7c9c 62be
000000b0: 77e9 c5bc 2524 2ebd 5f6d 713e efcb 3bbf
000000c0: 351c 1b3d 008f 1ebd 7c94 803e 8514 a3bd
000000d0: 6227 9a3d c703 96be b0c2 be3e 40a9 cc3d
000000e0: b30b d2be 30d9 09be 9b65 1a3d 089f a5bc
000000f0: 902d 503e 91ff 90be e08d adbd bcc6 f4be
00000100: bb20 3dbc 7a3a ccbd 95c0 903d 7918 b7be
00000110: 461a 44be 4ded d33c 221a 83bd 591c 8bbc
00000120: 6aa5 dbbd a335 aebe 75ee aebd 6f0b 233e
00000130: 5ffd 763e 6f2d a43d 96ca d1bd 01f0 623e
00000140: 4c82 69be b563 393c f87b 3abe 378f 3f3d
00000150: be86 98bd 7af9 863e f6c2 203e 7ae8 acbd
00000160: 6e73 923d 859d e4be 5098 41bd 2718 e43d
00000170: 6024 c1bb 384e 3abe 79b8 75be 661e 64be
00000180: baf8 83be bd14 08be cd41 30be 55a8 57be
00000190: a3aa 1abe 1d8f d2bb ef4a 1bbf 67c7 67bd
000001a0: ce5e fcbd 3806 dd3d e8db b2ba eed9 203e
000001b0: 60a2 c73e 1eaf 3abd 94ec dfbe a118 c1bd
000001c0: dde7 d63d e29c f03d 3652 1dbe 50cb 483d
000001d0: 0d99 20bc 237d 62bd f502 c03c a124 2c3e
000001e0: 6d2d 5bbc 4619 05be 5481 69be 051e cbbe
000001f0: 34c6 a2be a38c 5abc 0c9d bebe 48d7 6e3d
00000200: de56 8d3c afb3 5a3e 58de b33e 9e6f 03be
00000210: b9c3 1bbe ff33 27bf 85b5 b9bd 3fe6 103e
00000220: 254e 01bf 7427 9ebd 12d6 dcbe 45d2 e4bd
00000230: 08a0 0cbf ee17 133c 5d2b 4ebe 8075 e6be
00000240: fdeb 51be e633 a7be 6443 9d3c e1cd bdbd
00000250: bf3f 25be 7410 84bf a90f dcbd 4d58 f9bd
00000260: 1554 10be 67e9 f8be 1820 0b3d 27df bb3e
00000270: 5eba b4be a147 0dbe 8315 03be 2a35 84be
00000280: 62c8 3dbe 24be 49bf 58ee 19be 4d32 d1bd
00000290: b996 4ebd fd94 bdbd fe5f 16bf 8bee c23e
000002a0: 3fc2 6dbd 8f69 b4bd 4436 77bd b011 f73c
000002b0: f167 1b3d a98e 89be 377b a4be 0b35 b3be
000002c0: 2c4c 21be 0ad8 243c 3111 b8be a0a4 ff3d
000002d0: a7af 883d 98ab 5bbe d34e 313e 3688 333e
000002e0: 46aa a93d a462 d3be 225f 74be 09f7 a13e
000002f0: a75c e7be d8da 93be f75c a53d a76e cdbb
00000300: 55b3 bcbd 0c92 f43d 3561 2fbe 78df b6be
00000310: 1419 f6be 7fb3 aebd f75d c3bd a32f cabd
00000320: 618c f8be 1b69 3b3c a432 ffbd 6ac6 69be
00000330: 506d 183d 5e98 bdbe 2b81 f9be 375d 86be
00000340: ef3b 82be dfad 65be 6dbb 89be 9287 46be
00000350: a8f0 c5be 52fc a8be 95e1 bdbe eefa f6bd
00000360: a44a babe cf03 3b3e 483f a1be 0b84 cdbd
00000370: 75c5 c63c 3d58 b73e f28e 16be a3cc b23e
00000380: 70a7 43be 1f8b 1ebe fdc7 eebe 7ff1 e3be
00000390: 532c c23d a38c 493e 4919 a3be adfd 25bd
000003a0: ad6e 1fbe c62b 03bd fcf2 c3bb 3577 d7be
000003b0: 60a0 89be 7637 34be aa1a 86bf 889b 8b3d
000003c0: 24ea 533e f3f0 9fbe 1798 71be 387b 7e3c
000003d0: 0f84 eabe 5a0b e2be ca6b 05be 408f 9abe
000003e0: 4922 a6bd ef48 43bf 077e bebe 39b2 d9be
000003f0: f044 5f3e 2453 09bd b907 7bbf 44f9 43be
-0.28072777 -0.015969185 0.14020011 -0.058851648 -0.14557998 -0.09307499 -0.0441128 -0.19684805
0.068300985 -0.13058059 0.049937136 -0.07581538 -0.14405143 -0.25593263 -0.08982381 -0.22875218
-0.13345078 0.1485157 -0.034286886 -0.2806324 0.083884574 -0.6563617 -0.059595186 0.17507163
-0.16692457 0.35919362 0.019157669 0.19711652 -1.8953893 -0.25571755 0.19700237 0.012604603
-0.114452615 -0.09071274 -0.058803447 0.13004501 -0.07993673 0.2619925 0.14871724 -0.50142634
-0.008210588 -0.2866555 -0.0187228 -0.22130007 -0.024159176 -0.04251494 0.23576878 -0.7335805
0.037868697 -0.038710594 0.25113285 -0.07962898 0.07527043 -0.29299757 0.3725791 0.099932194
-0.4102455 -0.13461757 0.037694555 -0.020217434 0.2032988 -0.28319982 -0.08474326 -0.47807872
-0.011543448 -0.09972091 0.07067982 -0.3576086 -0.19150648 0.02586999 -0.06401469 -0.01698129
-0.107249096 -0.34025297 -0.08541576 0.1592233 0.24120091 0.08016478 -0.10243718 0.22161867
-0.2280361 0.011315276 -0.18211353 0.04676744 -0.07447575 0.2636221 0.15699372 -0.08442779
0.07150923 -0.44651428 -0.047264397 0.11137419 -0.005894229 -0.181939 -0.23996152 -0.22277221
-0.257757 -0.13289161 -0.17212601 -0.21060307 -0.15104155 -0.006425752 -0.60661215 -0.05658665
-0.1232277 0.10792202 -0.001364586 0.15708134 0.3899107 -0.04557716 -0.43735182 -0.09428526
0.10493443 0.11748673 -0.15363392 0.04902202 -0.009802115 -0.05529512 0.02343891 0.16810848
-0.01337753 -0.12997922 -0.22803241 -0.3967134 -0.31791842 -0.0133391945 -0.37229192 0.058310777
0.017253336 0.21357606 0.35130572 -0.12835547 -0.15211381 -0.65313715 -0.09067825 0.14150332
-0.50509864 -0.07722369 -0.43132073 -0.11172918 -0.5493169 0.008977873 -0.2013373 -0.4501152
-0.20500179 -0.32656783 0.019197173 -0.09267784 -0.16137598 -1.0317521 -0.107451744 -0.12175045
-0.14094575 -0.48615572 0.033966154 0.3669369 -0.35298437 -0.13796856 -0.12801175 -0.2582181
-0.18533471 -0.78805757 -0.15032327 -0.10214672 -0.05043671 -0.09256933 -0.5874022 0.3807262
-0.058046576 -0.08809196 -0.060354486 0.030159801 0.037940923 -0.26866654 -0.32125255 -0.35001406
-0.15751714 0.010061273 -0.35950616 0.124825716 0.06674128 -0.21452177 0.17315225 0.17532429
0.0828443 -0.41286194 -0.23864415 0.31633785 -0.45187876 -0.28877902 0.08074372 -0.0062692943
-0.09213892 0.11941919 -0.17126925 -0.35717368 -0.48066008 -0.0853033 -0.09539407 -0.09872367
-0.485446 0.011438633 -0.12460831 -0.22829595 0.037213624 -0.3703031 -0.4873136 -0.26242992
-0.2543635 -0.22429608 -0.26900807 -0.19387653 -0.3866017 -0.33005005 -0.37086168 -0.1205958
-0.3638507 0.18263172 -0.31493592 -0.10034951 0.024264077 0.35809508 -0.14702967 0.3492175
-0.19106841 -0.15482758 -0.46636954 -0.44520184 0.094811104 0.19682555 -0.3185523 -0.040525127
-0.15569563 -0.032024167 -0.0059798937 -0.42083135 -0.2688017 -0.17599282 -1.0476887 0.068167746
0.20694786 -0.31238517 -0.23593174 0.015532307 -0.45803878 -0.44149286 -0.130294 -0.30187416
-0.08112008 -0.7628316 -0.37205526 -0.42518786 0.21803641 -0.033526555 -0.9805866 -0.19138056

bias f4 [10]
00000000: dc17 363d 7d5d 55bf c995 35be 7a8a dabe
00000010: e9f0 2dbe 5d3d 3a3e 0fc0 9abe c591 03bf
00000020: c127 bd3f d0e7 583e
0.044456348 -0.83345777 -0.1773292 -0.42683774 -0.16986431 0.1818747 -0.30224654 -0.513943
1.4777757 0.2118218
