src/mnist_interactive/examples/torchMNISTModel.pth (torch, 477336 bytes, 6 tensors)

weight f4 [128, 784]
000000 2e aa ae 3b a5 5e cb bb 9c 20 5b 3c a7 e1 08 bd
       0.0053303456 -0.006206351 0.013374474 -0.033418324
000010 ce ac 8e 3c 5a 20 07 bd 01 ed cd bb fe f3 e6 3c
       0.017416384 -0.032989837 -0.0062843566 0.028192516
000020 78 66 ff bc 47 4a d4 3c 0a 3f 02 bc 60 4e 16 3c
       -0.03117679 0.025914324 -0.0079496 0.0091739595
000030 8e d5 c5 bc 07 b1 09 3d 41 40 fb bb 77 06 11 bd
       -0.024149682 0.033616092 -0.007667572 -0.035406556
000040 bc 5c 17 bc b5 4e d3 3c a3 8c 94 3c ba 26 ec bc
       -0.009238418 0.025794366 0.018133467 -0.02882706
000050 4a b1 58 bc 6e a5 81 3b 78 85 dc bc 9a b1 b7 bc
       -0.013225863 0.0039564883 -0.026919112 -0.022423554
000060 4e 56 2b 3c 65 ff 9f 3c 53 8e cf 3c 1a 50 0f 3d
       0.010457588 0.019530961 0.02533642 0.0349885
000070 9c 2c 66 bc be ba e9 bc 65 03 9b bb fe 99 00 bd
       -0.014048722 -0.028531428 -0.0047306293 -0.03139686
000080 85 d5 2a 3c 13 b9 49 3c e3 19 c8 bc fc ac 6c bc
       0.010426884 0.012312192 -0.024426406 -0.01444554
000090 50 83 80 3c b7 6e 18 bc ee 33 78 3c 03 d2 02 3d
       0.015687615 -0.00930374 0.0151491 0.031938564
0000a0 ca 4a 27 3b b1 cb ae bc c1 53 62 3c 00 00 8e b7
       0.0025526755 -0.021337362 0.013813914 -1.692772e-05
0000b0 80 d0 80 bc 6a 25 aa 3c d3 75 98 bb fd 05 00 bd
       -0.01572442 0.020769794 -0.0046527176 -0.03125571
0000c0 f6 19 0c bd 1c 7f b5 bc 80 b8 27 bb 77 92 94 bc
       -0.034204446 -0.022155337 -0.0025592148 -0.018136246
0000d0 f3 96 fc bc 00 82 a6 ba b8 8d 64 b8 7c e8 d9 3c
       -0.030833697 -0.0012703538 -5.4491422e-05 0.026600115
0000e0 dc 76 31 3b 53 92 46 bc 2a 75 05 bd 6e 83 4e 3c
       0.0027078902 -0.012119847 -0.03258244 0.0126045775
0000f0 01 18 3f ba 9c 53 88 3c 9c 1f 22 3c 23 e7 8c bc
       -0.00072896486 0.01664143 0.009895232 -0.017200058
000100 60 8d 90 3c 51 c4 ca 3c 5c 6c a0 bc 61 50 d9 bc
       0.017645538 0.024751814 -0.01958292 -0.026527585
000110 1a ca 01 3d 9c 6d c2 bc 11 2f c2 3c ca 90 32 bb
       0.03168688 -0.023733906 0.023704084 -0.0027246946
000120 33 63 12 bd ae ef 82 bd 8c f2 61 bd 6d 37 72 bd
       -0.035739135 -0.063933715 -0.05516295 -0.05913489
000130 43 07 40 3d bb 87 1b 3d 86 31 c1 3d 26 1e 4d 3d
       0.046881925 0.03797124 0.09433274 0.05007758
000140 d9 3b d7 3c 02 59 08 bd 90 38 aa bc c5 24 08 bd
       0.026273655 -0.03328801 -0.020778924 -0.03323819
000150 73 ea cb bc b7 16 5b 3c 2d 1d 0c bd b7 ad 33 3a
       -0.024892068 0.013372115 -0.03420751 0.00068541936
000160 b8 5d 6c bc e5 3b 9f bb f1 66 b3 bc ee c5 66 bc
       -0.014426641 -0.004859435 -0.021899672 -0.014085276
000170 67 42 81 3c 5e a1 de 3c 9a c4 bb bc be e1 8e 3d
       0.015778733 0.027176555 -0.022920895 0.06976651
000180 b8 cc a7 3d c5 a1 87 3d 9e 56 d8 bc 9c d0 42 bd
       0.08193344 0.06622652 -0.02640849 -0.047562227
000190 2a a2 8d 3d dc 8f bb 3d f7 6e 9f 3d e1 01 50 3d
       0.06915696 0.091582984 0.07784837 0.050783042
0001a0 42 92 4b 3d 0e 94 40 3d 4b 2f ba 3d 52 48 ba 3d
       0.04970003 0.047016196 0.09091052 0.09095825
0001b0 0d ae 9c 3d 93 bb c6 bc c5 a4 09 bc 78 b8 72 3c
       0.07650385 -0.024259364 -0.0084011005 0.014814489
0001c0 83 03 fb bc f8 52 ff 3c e2 49 0d 3d 65 19 bb 3b
       -0.030641323 0.031167492 0.03449429 0.0057098144
0001d0 b3 ea 84 3c f7 69 0f bd d1 8c c4 3c bd 0f b2 bd
       0.016225195 -0.035013165 0.023992928 -0.08694408
0001e0 bc 35 70 bd 48 15 fd bc 8f 31 86 bd 72 94 82 bd
       -0.058644995 -0.030893937 -0.06552421 -0.0637597
0001f0 9c a6 2d bd 15 d8 4f bd 90 e7 b8 3d 06 27 04 3d
       -0.04239522 -0.05074318 0.09028542 0.03226378
000200 cd f2 55 3d cd 9d 03 3d cb 42 ae 3d fd ef 3b 3d
       0.052233506 0.032132912 0.085088335 0.045883168
000210 fc 03 98 3d 86 cb 3a 3d 7c fb 9c 3d 08 2d 67 3d
       0.07422635 0.04560425 0.07665154 0.05643943
000220 22 1d 90 3d a5 c8 1b bc fe e7 e6 bc be 4f ac bc
       0.07036807 -0.009508287 -0.028186794 -0.021034118
000230 90 e5 8d bc 0a 47 1a 3c 5c c6 c5 bb 21 f8 b9 3c
       -0.017321378 0.009416351 -0.006035609 0.022701325
000240 ca d1 d1 3b 78 0e ec 3b e9 8f 1d bd cf 77 ac bd
       0.0064031826 0.0072038732 -0.03846732 -0.08421289
000250 90 dc c1 bd 4f 68 3c bd 26 06 b2 bd 54 cf ab bd
       -0.09465897 -0.045997914 -0.08692579 -0.08389154
000260 a3 b2 74 bd 9e de c3 bd 3b 3b 88 bd 70 3b 89 bd
       -0.059740674 -0.09563945 -0.06651922 -0.0670079
000270 b8 6d 9b bd 2f 69 8f bd 03 98 9d bd 99 16 13 bd
       -0.075892866 -0.07002484 -0.076950096 -0.035910223
000280 26 41 2c bd d0 7e 0a bd a5 04 ae 3d 0a c9 08 3d
       -0.042054318 -0.033812344 0.084969796 0.03339485
000290 b3 48 05 3d 2f 1c 1e 3d 4a 9f 4f bc 1c 79 c0 bc
       0.032540035 0.038601097 -0.012672255 -0.02349525
0002a0 fc 3a ee bc 07 69 91 3c d3 de 2d bc 53 ec a0 3b
       -0.02908086 0.017750276 -0.010612207 0.0049109845
0002b0 f7 c5 b4 bd af a5 9d bd 9d 3c 04 bd dd b8 3e bd
       -0.08826821 -0.07697617 -0.032284368 -0.046563018
0002c0 e4 c2 b6 bd 27 1b 43 bd 0f 2a 88 bd 77 c2 62 bd
       -0.08923891 -0.047633316 -0.06648647 -0.055361237
0002d0 b9 45 b6 bd e4 d5 8f bd 1f 96 02 bd 72 fb d8 bc
       -0.08900017 -0.07023218 -0.031881448 -0.026487086
0002e0 da 50 44 bd aa 7c a7 bd b8 50 ed bc e0 e4 97 bd
       -0.04792867 -0.08178075 -0.028969154 -0.07416701
0002f0 46 79 81 bd 9d 5c ff bc a4 98 f9 bc 70 7a 8c 3d
       -0.06321959 -0.031172091 -0.030468293 0.068592906
000300 40 2c 87 3d 93 03 2e 3d 73 4a 9c 3c 05 0e 2d bc
       0.06600237 0.042483877 0.019078469 -0.010562425
000310 21 9c d9 3c 8e 49 3c 3c 01 52 de bb 2b e0 4b bd
       0.026563706 0.011492146 -0.006784678 -0.04977433
000320 d6 24 b2 bd de 26 a9 bd 10 31 48 bd 1a fd b5 bd
       -0.08698432 -0.082593665 -0.048874915 -0.08886166
000330 97 67 8b bd b4 6b 93 bd fe 92 bf bd 62 df c9 bc
       -0.068068676 -0.07198277 -0.093542084 -0.02464265
000340 0b 4e 06 bd bb d9 94 bd 07 ef a3 bd 06 32 77 bd
       -0.03278927 -0.07268091 -0.08004575 -0.06035044
000350 fa 74 24 bd aa 09 64 bd e5 75 c1 bd 11 9d a7 bd
       -0.04015062 -0.05567328 -0.09446315 -0.08184255
000360 8a 01 f9 bc a1 62 9f bd 5c 40 12 bd ed ea 7f bd
       -0.030396242 -0.07782484 -0.03570591 -0.062479902
000370 fb 76 26 3d ad 43 eb 3c f1 bc b7 3c fe a8 ac bc
       0.040640812 0.028718794 0.022428961 -0.021076676
000380 ac 95 06 bd ca 20 e7 bb 5e e3 95 3d 2e e4 9e bd
       -0.032857582 -0.0070534693 0.073187575 -0.077583656
000390 c9 b0 83 bd 0c 0f d6 bc 38 89 18 bd 47 27 be bd
       -0.064302035 -0.026130222 -0.037240237 -0.09284835
0003a0 75 12 dd bc 0b c9 a7 bd 5f e4 8f bd e6 58 0d bd
       -0.02698634 -0.08192643 -0.0702598 -0.03450861
0003b0 e1 49 94 bd b4 a0 24 bd 36 92 8b bd a3 57 ee bc
       -0.07240654 -0.04019232 -0.06814997 -0.029094523
0003c0 9a 6a ce bc 00 6c 1d bd 1c 02 cb bc ce d9 10 bd
       -0.025197316 -0.038433075 -0.02478128 -0.035363965
0003d0 a3 01 9b bd d2 20 da bc 18 48 45 bd c3 9f 11 bd
       -0.075686716 -0.026626978 -0.048164457 -0.03555275
0003e0 b3 af cf bc 4a ba c7 3a 80 c0 a5 bb ae 9f a4 3c
       -0.025352335 0.0015238014 -0.005058348 0.020095672
0003f0 0c e7 be bc 05 bb bf 3c 8d 6e 8b 3d e9 f9 8c bd
       -0.023303531 0.023404608 0.06808195 -0.06883604

bias f4 [128]
000000 da 4e af bd 9e de 85 be 5b 2a c2 bd ec 1f 1d bf
       -0.085599616 -0.26146406 -0.09480735 -0.61376834
000010 18 04 8e 3c 5a e5 c8 bd 5d e5 70 be b3 3c 44 bf
       0.017335936 -0.0980937 -0.23524995 -0.7665512
000020 a3 a0 46 bf e4 51 cb be 4c 36 35 bd 4d 64 c0 bd
       -0.7758886 -0.39710915 -0.044241235 -0.09394131
000030 63 62 95 3e b6 79 86 bd 22 e3 4a be ee 2b af bd
       0.29176626 -0.06566183 -0.19813207 -0.08553301
000040 fd ec 54 be c0 74 1c bf 01 4c 67 3e 62 6f d2 be
       -0.20793529 -0.61115646 0.22587587 -0.41100603
000050 1e 0d b1 bd 98 09 ce bd 60 0e f1 bb 51 d7 9a be
       -0.0864508 -0.100604236 -0.00735645 -0.30242398
000060 12 d2 cd be 33 63 83 bd 93 74 d7 bd 6c 97 81 3e
       -0.40199333 -0.06415405 -0.10520282 0.25310838
000070 30 df b8 bd d4 94 ef bd a3 ac 8a bd c5 60 c0 be
       -0.09026945 -0.116983086 -0.06771209 -0.3757383
000080 53 f2 45 3e 2a be 61 be 6f bd 63 3e 79 2f bd bd
       0.1933072 -0.22045198 0.22240232 -0.0923757
000090 f9 ae 98 bd 4c fb 4c bd f7 9d 19 be ea b9 82 bd
       -0.074552484 -0.050044343 -0.15001665 -0.063831165
0000a0 4b 1f 19 be 48 ba 23 bd 06 03 d6 be f4 06 86 bd
       -0.14953344 -0.039972574 -0.41799182 -0.06544295
0000b0 df d8 9e bd c0 96 a3 be 3b 96 92 3d 3d 2c 7a bd
       -0.07756209 -0.3195095 0.071575604 -0.061077345
0000c0 e3 30 c3 be d2 5f 57 3e 8b 23 73 bd 52 e8 b9 bd
       -0.38123235 0.21032646 -0.05936007 -0.09077515
0000d0 c9 1d b8 bd d3 67 c5 3e 6f 75 04 bf fd 06 ef 3d
       -0.08990056 0.38555774 -0.5174169 0.11671255
0000e0 b8 54 f4 3e a7 7c a5 bd df 0b 10 bd 2a e3 c1 be
       0.47720885 -0.08080416 -0.03516757 -0.37868625
0000f0 e0 a0 58 be 4b cf fe 3d d0 5d 86 be 37 0a ac ba
       -0.21155119 0.12441882 -0.26243448 -0.0013125603
000100 41 84 d9 bd 36 7e 84 be 06 e3 c4 be fe 40 01 be
       -0.106209286 -0.2587754 -0.38454455 -0.12622449
000110 64 b4 09 be 58 8b d7 be b8 07 5e be d3 9c 45 be
       -0.1344772 -0.42098498 -0.21682632 -0.19298105
000120 12 ac 2d bd 39 dc 01 bd 83 eb 4b bd 1d 79 cd be
       -0.042400427 -0.03170416 -0.04978515 -0.40131465
000130 df fd 2e be 4b b7 b0 be 80 19 d9 bd 99 c3 f4 3e
       -0.17089032 -0.3451484 -0.10600567 0.4780548
000140 16 1f 65 be 32 10 84 be a6 be 8e bd 1d fe b8 3e
       -0.2237514 -0.25793606 -0.06969957 0.36131373
000150 7a 75 67 bc c9 78 ce be 52 e5 de bd bc ec bb bd
       -0.01412713 -0.40326527 -0.10883583 -0.09176013
000160 05 c5 6b be 0f 41 9a be 46 9e 66 be 31 f3 00 bf
       -0.23024376 -0.3012776 -0.22521314 -0.5037108
000170 6c d1 82 bd 0e 4c fa bd da f5 67 bf f4 66 8f bc
       -0.063876 -0.122215375 -0.90609515 -0.017505147
000180 96 fe 95 be 96 76 bc bd fa 2c 6c be b8 73 23 be
       -0.29295796 -0.09202306 -0.23064032 -0.15962112
000190 2d 7c 91 be 13 18 6e bd d2 9e 28 be 48 62 2c be
       -0.2841505 -0.058128428 -0.16466835 -0.16834366
0001a0 fd 73 b4 bd 06 ab cc bd 72 a3 94 be 8f 83 e4 bd
       -0.088111855 -0.09993558 -0.2903095 -0.11157905
0001b0 d4 8a 03 be 4f 3e 60 bd fd c9 56 bd 4c fc 7c bd
       -0.12845927 -0.054746922 -0.052438725 -0.061764047
0001c0 c8 e5 bc bd f0 ab ed 3a a8 a4 11 3c 51 42 05 be
       -0.09223515 0.0018132906 0.008889355 -0.13013579
0001d0 ab 04 a2 be bf de e3 be 69 e8 5f be 8f be e2 bd
       -0.31644186 -0.4450588 -0.21866001 -0.110715024
0001e0 ba 3e 32 bd b1 0e 92 3d 0c e5 3e bd a2 c9 13 bd
       -0.043516852 0.071317084 -0.046605155 -0.036080964
0001f0 e0 6b 94 3d fd dc 18 bf 8d ea 73 3d 78 6b 55 bf
       0.07247138 -0.597122 0.059549857 -0.8336711

weight f4 [128, 128]
000000 07 08 cf bc 71 9b c0 3e dd 00 56 3b 99 05 27 3c
       -0.025272382 0.37618592 0.0032654323 0.010194206
000010 8a de b0 3d 27 70 f2 3a ef 1a 7b bc 7a 78 44 bf
       0.08636196 0.0018496559 -0.015326246 -0.7674633
000020 35 e0 d4 bd a6 c1 d5 3d 31 8f b0 be 4d 52 9a 3d
       -0.103943266 0.10437326 -0.34484246 0.07535229
000030 2e 73 f0 be 5e 7c 8b 3d 3a 44 63 3c 7f 64 f9 3d
       -0.46962875 0.068108305 0.013871247 0.12177371
000040 7a 20 18 bf dd 74 04 bf 3c 40 83 3d 9b 6c a5 be
       -0.59424555 -0.5174082 0.06408736 -0.32309422
000050 01 55 96 3c b5 f1 ee bd c1 8f f6 be 03 f8 06 bf
       0.01835108 -0.11667196 -0.4815655 -0.52722186
000060 51 4d 8f 3e db 31 5f 3b 0a fd 94 3f e7 76 09 3e
       0.27988675 0.0034056816 1.1639721 0.13424264
000070 a3 a8 ca bc c5 91 08 3f 2d a8 fb bd dc 89 2f 3e
       -0.024738615 0.53347427 -0.12287936 0.17142433
000080 90 bb 15 be d2 fd 6c bd 28 41 16 3e de 3b fc 3d
       -0.1462233 -0.05785925 0.14673293 0.12316106
000090 78 89 fc bc a9 d1 f2 3d 4b c6 ae 3e 6e e5 34 be
       -0.030827269 0.11856396 0.3413566 -0.17665645
0000a0 96 21 59 3e ee e2 6a bf 98 d3 3f 3e 34 f3 00 be
       0.21204218 -0.9175252 0.1873306 -0.12592775
0000b0 19 5e da be 56 04 bd be 97 8c 31 3e 45 be 90 3d
       -0.42649916 -0.3691737 0.17338787 0.07067541
0000c0 25 ad de be d2 f9 1c 3e 31 90 ff 3d e5 7f 01 3d
       -0.43491474 0.15329674 0.12478674 0.03161611
0000d0 27 80 4f bf d1 50 28 be b9 34 a6 3d e2 a9 13 3e
       -0.8105492 -0.16437079 0.08115525 0.14420274
0000e0 72 cc 13 3e 1e 54 ad ba 77 0b 54 3e 03 d1 34 be
       0.14433458 -0.0013223921 0.20707498 -0.17657857
0000f0 7d fa 03 bf 3a 91 26 bf 03 cf 0b 3c 43 15 93 be
       -0.5155409 -0.6506535 0.008533242 -0.2872716
000100 47 03 46 bc b4 1f 14 be 76 5f 26 3e a0 a8 f4 be
       -0.012085742 -0.14465219 0.16247353 -0.477849
000110 49 f8 00 bf e0 78 b4 3e 83 1f 0e be fb 31 20 bf
       -0.50378853 0.3524847 -0.13879208 -0.62576264
000120 f8 a4 a7 bd 65 de 40 be 16 12 bf be 9d b4 9c 3d
       -0.08185762 -0.18834837 -0.37318486 0.07651637
000130 6e 35 d4 be 2b 48 4d bb c4 14 01 be 37 39 00 3f
       -0.41447014 -0.0031323533 -0.12605578 0.500873
000140 cb d5 d1 3c 32 2d 97 3e 18 78 e1 be 54 f7 d3 be
       0.02561464 0.2952667 -0.44036937 -0.41399634
000150 50 99 ec 3e 9f 2e a9 be 6a bc 48 bd 26 4f fa bd
       0.46210718 -0.33043382 -0.04900781 -0.122221276
000160 30 43 cc be 0c 3d d7 be d1 53 1e 3e 3b fa 14 3e
       -0.3989501 -0.42038763 0.15461661 0.1454858
000170 89 95 ee 3d 0e 82 35 3b 4d 3b d3 be 40 1e 97 be
       0.11649615 0.0027695927 -0.4125618 -0.29515266
000180 c7 ed 17 3e ec 7c 09 3f b7 28 5f be 6e 71 1c bf
       0.14836799 0.5370624 -0.21792875 -0.6111058
000190 46 fb 89 bf 48 4d 11 bf 2f ea 07 bf 65 23 b7 be
       -1.0779808 -0.56758547 -0.5309171 -0.3576919
0001a0 d9 98 f8 3d 30 29 79 be 56 29 8f 3d 9b ff c7 3c
       0.121385284 -0.24332118 0.06990306 0.024413874
0001b0 e1 d9 84 3d b6 d4 06 3e 62 a7 33 be 82 39 00 bc
       0.064868696 0.1316708 -0.1754432 -0.007826211
0001c0 87 bd be 3d 33 17 f4 be ff 56 1d bd 96 a5 92 bf
       0.09313493 -0.4767395 -0.038413044 -1.1456783
0001d0 aa d8 ad bd 5a 15 03 3e 92 61 fe be 9d 4f 90 bd
       -0.08488591 0.12801114 -0.49683815 -0.07046435
0001e0 19 5b 89 bd 81 e9 8a be 91 f7 0c 3e f6 b7 e6 bb
       -0.067068286 -0.27131274 0.13766314 -0.007040973
0001f0 ca 54 9f bf 85 99 25 bf df ef 69 be 82 15 f6 be
       -1.244775 -0.6468738 -0.2284541 -0.48063284
000200 37 e2 36 bd cb 0b e4 bc 41 e4 91 3c ea 7f 21 3e
       -0.04464933 -0.027837655 0.017809035 0.15771452
000210 aa 75 c0 be 5f d2 b3 bd 2f 17 1f 3d ce d6 95 be
       -0.3758977 -0.087803595 0.03884047 -0.29265445
000220 02 66 92 bd 6f e7 13 be 3b fb 17 3c 52 23 26 3d
       -0.07148363 -0.14443754 0.009276207 0.040561028
000230 19 85 ab be cc d2 3e 3b 9a 5e a6 bd 5b 84 e0 3c
       -0.33499983 0.0029117344 -0.081235126 0.027406862
000240 a7 65 1e be 71 64 37 be e5 ed 80 be 33 ac cb 3d
       -0.15468465 -0.17909409 -0.251815 0.09944954
000250 91 c0 1d 3c ec 9e c9 bd b1 ff d4 bc cd 63 58 3d
       0.009628431 -0.09844765 -0.02600083 0.052829552
000260 e5 5f 89 be 88 3d a1 3c 50 a6 62 be 3d 15 ab be
       -0.26830974 0.01968266 -0.22133756 -0.3341464
000270 0f 38 00 be 36 2c ad bd 7f 67 13 be ec a8 47 bd
       -0.12521385 -0.08455698 -0.1439495 -0.04874508
000280 79 8e 7a be 3e 17 c1 bd a2 f4 38 3d 31 d2 aa bd
       -0.24468412 -0.09428261 0.045155175 -0.08340872
000290 c6 bb 87 bd ca 3b d8 bd 92 e0 b3 bd f3 99 f8 3c
       -0.06627612 -0.10558279 -0.08783068 0.030346846
0002a0 2f d5 b6 be 91 dd 18 be 56 93 8a be c9 87 b2 3d
       -0.3570952 -0.14928271 -0.27065533 0.08717305
0002b0 74 55 af be fd 58 4d be cf 2c 5d be 04 34 e6 3d
       -0.34244883 -0.20053478 -0.21599124 0.1124039
0002c0 af 8e be be 02 e5 a1 be 9f d3 9d be d3 23 e4 bd
       -0.37218234 -0.31620032 -0.30825517 -0.111396454
0002d0 89 30 8d bc ad 54 c2 bd fc b1 7c 3b 67 ff 49 3e
       -0.017235057 -0.09488807 0.0038558235 0.19726335
0002e0 31 22 28 be 29 a6 ef bc 6b c0 17 3d 6f 63 d1 bd
       -0.16419293 -0.029254036 0.03704874 -0.102240436
0002f0 c9 cd 76 be 72 b4 8e be 7a 69 9d be 18 af 8d bd
       -0.24101938 -0.27872044 -0.30744535 -0.06918162
000300 44 d6 ba 3b f0 c5 00 3e 54 09 37 be 4d c8 1f be
       0.005701812 0.12575507 -0.17874652 -0.15603752
000310 d0 c8 ac be eb 19 3e 3d 98 47 28 3e d3 01 10 be
       -0.33746958 0.046411436 0.16433561 -0.14063196
000320 df 4c 55 bd 25 2c fa bd 9f 93 7b be 99 0c ac bd
       -0.052075263 -0.12215451 -0.24568032 -0.0840084
000330 d2 7e 3c ba 23 fe 60 bd c8 6f 38 3d dd e8 ff 3d
       -0.00071905286 -0.054929864 0.045028478 0.12495587
000340 a7 0f 0b 3e c4 f2 17 be 94 96 f1 bd 9e a7 4e be
       0.1358019 -0.14838701 -0.117962986 -0.20181128
000350 57 28 9e be dc 08 ae be ac 5e 6e bd 0b 05 92 bc
       -0.30890152 -0.33991134 -0.058195755 -0.01782467
000360 2b 94 4b be 55 ae 7a bd 5f 04 2a be 74 8c 2d bd
       -0.1988074 -0.061201412 -0.1660323 -0.042370275
000370 69 6a 89 bd f8 03 1d 3e 66 bc 50 bd aa 3a 50 3d
       -0.06709749 0.15333545 -0.05096092 0.050837196
000380 aa 3c 47 be 85 61 22 be ab 8a d8 3c f1 28 43 b9
       -0.19456735 -0.15857513 0.02643331 -0.00018611901
000390 00 aa da bb a3 86 3c bd 6f 12 4d be 1b 66 05 bd
       -0.0066730976 -0.046026837 -0.20026563 -0.03256808
0003a0 07 bc 09 3c 3b 89 dd be c8 ec 39 be 96 92 a6 bd
       0.008406646 -0.4326876 -0.18156731 -0.08133428
0003b0 eb 41 7d bd 79 5a a9 3d 07 9d 08 be fa 90 d6 3c
       -0.061830442 0.082692094 -0.13341151 0.026192177
0003c0 73 41 d9 3b 65 be 93 be fb bf 31 3e 93 2d a2 bd
       0.0066301166 -0.28856197 0.17358391 -0.07918849
0003d0 3d 28 87 3b 6a f0 5e be bc a4 d7 bd 5f 63 9c 3c
       0.00412467 -0.21771398 -0.105294675 0.019090353
0003e0 19 d3 65 bc 7d 86 3a be 54 65 04 be 65 b7 07 be
       -0.01402738 -0.18215366 -0.12929279 -0.13253553
0003f0 4f 66 c5 bd b8 d3 dc bd b8 5c ea bd 3a 4d da bc
       -0.096386544 -0.1078257 -0.11443466 -0.026648153

bias f4 [128]
000000 6b ae 8c be ce 79 cd be 05 0b 02 bf 80 43 80 bf
       -0.2747682 -0.40131992 -0.50798064 -1.0020599
000010 68 68 5a 3e c9 19 a2 be 07 21 8d be 5a 63 4e bf
       0.2132889 -0.31660298 -0.2756426 -0.8062035
000020 b6 b7 8d bf 63 d4 a8 be 80 53 13 3f 35 50 fa be
       -1.1071689 -0.32974538 0.57549286 -0.48889318
000030 25 9d e8 3f ef fb 59 be 56 5c 42 bf e3 5e 64 bf
       1.8172957 -0.21287511 -0.75922143 -0.89207286
000040 95 73 21 bf d4 53 7f be 6e af 7c bf 11 2f 59 bf
       -0.6306699 -0.24934322 -0.98705184 -0.8483744
000050 29 55 a2 bf e9 ed 00 bf 15 83 ec be 24 20 50 bf
       -1.2682239 -0.5036302 -0.46193758 -0.8129904
000060 27 63 61 3c d0 67 2f bf 3e ef 0a bf 36 3b 05 bf
       0.01375655 -0.6851778 -0.54271305 -0.52043474
000070 36 34 90 bf 34 27 e7 be 9f ba 2f bf 28 83 89 bf
       -1.1265934 -0.45147097 -0.68644136 -1.0743151
000080 a7 7d dd be f6 f7 13 bf 4b b0 74 bf a3 a4 8c be
       -0.43259928 -0.57800233 -0.955815 -0.27469358
000090 15 5c 1c bf ec d9 90 be 4a 82 5b bf 72 2e 55 bf
       -0.61078006 -0.2829126 -0.8574568 -0.83273995
0000a0 57 f5 54 3f c0 30 4d bf d4 fd 82 bf 70 e3 42 be
       0.8318686 -0.8015251 -1.0233712 -0.19032073
0000b0 12 9d e1 be 87 7a 12 bf 33 db 4f bf fb 08 9f be
       -0.44065148 -0.5721821 -0.81193846 -0.3106154
0000c0 37 fa 61 bf 19 34 f6 bd c1 e2 8b bf a7 cd 8e bf
       -0.8827242 -0.120216556 -1.0928575 -1.115651
0000d0 7e 14 6a be 55 21 17 bf 53 79 75 bc 38 91 04 be
       -0.2285938 -0.59035236 -0.014982539 -0.12946022
0000e0 d1 6c d8 be 8c 3d fd be 62 aa 6e be 2a 93 17 bf
       -0.4227052 -0.4946102 -0.23307183 -0.5920893
0000f0 33 a1 23 bf 71 3f 76 bf a7 0d 65 3c f6 7c 6a bf
       -0.63917845 -0.96190554 0.013980306 -0.91596925
000100 01 2e 87 be 86 2a 15 bf 73 c1 5f be 24 bb 55 be
       -0.26402286 -0.5826801 -0.21851139 -0.2087217
000110 af fc de be 03 a8 54 bf e0 a5 ab bd cf 02 69 bf
       -0.43552157 -0.83068866 -0.083812475 -0.9101991
000120 5a 65 fd be 98 d3 ca be 7f 0f 78 bf 35 c4 25 be
       -0.49491388 -0.39614558 -0.96898645 -0.16188128
000130 26 a2 8f bd af 22 81 bf f9 c9 e8 be 1b f1 6d be
       -0.07013349 -1.008871 -0.45466593 -0.23236506
000140 6d e1 a7 be a9 49 34 3f 1d f7 aa bd 77 59 be bf
       -0.32789174 0.70424896 -0.08347914 -1.4871053
000150 84 eb 16 bf e1 ff ca be 6f 0d b8 be 1c 88 71 bf
       -0.5895312 -0.39648345 -0.3594775 -0.9434831
000160 4a 41 56 3e 8a 4c da be 85 f5 12 bf 82 c5 73 bf
       0.20923343 -0.4263652 -0.57405883 -0.9522325
000170 9e ba 35 bf d8 6c 29 bb af 0a 6c bf ec 23 47 bf
       -0.7098788 -0.002585223 -0.922038 -0.7778919
000180 a3 c5 91 be 7e d6 cf be 70 11 97 bf 3f 9e 14 bf
       -0.28471097 -0.40593332 -1.1802197 -0.58053964
000190 84 de 75 be 36 d7 83 bd 1e e6 a1 be 5a fa 0d bf
       -0.24010664 -0.064375326 -0.31620878 -0.5546013
0001a0 5d 22 75 be 9d 0c 92 be 95 75 d6 be 99 5f 82 3e
       -0.2393889 -0.28525248 -0.41886583 0.2546356
0001b0 24 d6 cd 3e f7 8a 36 be 8c ec 9c bf 56 38 66 bf
       0.4020244 -0.17826448 -1.2259688 -0.8992971
0001c0 6c fe 80 bf 3b 08 11 bf 0b f6 95 be e8 e1 bc be
       -1.0077643 -0.56653184 -0.29289278 -0.36891103
0001d0 a5 ea 8a bf 18 0d 1e bf 51 15 f1 bd c5 aa f3 3e
       -1.0852858 -0.6173873 -0.11771644 0.47591224
0001e0 e2 92 92 be c4 01 d5 be 1f 18 05 bf 78 78 08 bf
       -0.28627688 -0.4160291 -0.5198993 -0.5330882
0001f0 52 be 2b 3f 24 3c 90 be d3 78 c6 bd 64 c3 29 be
       0.6708728 -0.28170884 -0.09691014 -0.16578442

weight f4 [10, 128]
000000 ea 4a 76 be d5 21 76 3b 85 f8 5e be b5 4d d9 be
       -0.24052015 0.0037556787 -0.2177449 -0.42442098
000010 d8 af e3 3c d4 83 44 bd 34 80 1e bf d5 a9 c7 3d
       0.02779381 -0.047977284 -0.6191437 0.0974919
000020 a4 a9 17 bf d7 47 02 3e 7e 94 0f 3e 42 5f c5 3d
       -0.59243226 0.12722717 0.14021489 0.096373096
000030 3f 68 a8 bd 3e c0 cc bd a5 f4 1c be 41 6c a6 be
       -0.08223008 -0.09997605 -0.153277 -0.32504466
000040 d6 2d 9b bb 67 71 4f 3d 05 da 47 be d0 1a 72 be
       -0.0047356887 0.05064526 -0.19516762 -0.2364304
000050 ec 28 42 3d 86 0e a2 bd bd fc 41 3d 9c 3c 09 be
       0.047402307 -0.079129264 0.04736017 -0.13402027
000060 06 65 24 be 8c 09 7a be c7 0f c1 bd b9 39 45 3d
       -0.16054162 -0.24417704 -0.094268374 0.04815075
000070 13 b8 ba be a4 28 6a be bc 08 06 bf 76 7c d7 bd
       -0.36468562 -0.22867066 -0.5235708 -0.10521786
000080 27 f9 75 be 3b 69 17 bf a1 5d d3 3c d2 b0 88 bd
       -0.24020825 -0.59144944 0.025801482 -0.06674351
000090 fa 9e 80 be 19 21 bc be e7 68 46 3d f5 44 19 be
       -0.2512129 -0.36744002 0.048439886 -0.14967711
0000a0 ff cb 3d bd 22 4c ba bd ac 04 e7 be c9 7b e0 bd
       -0.046337124 -0.090965524 -0.45120752 -0.1096111
0000b0 dc 37 0e be 98 a0 02 bf 2f d3 91 be 64 4e 10 be
       -0.13888496 -0.51026297 -0.28481433 -0.14092404
0000c0 69 81 68 be 96 d3 2d 3d 4b 5d cd 3e 3a 1f 99 be
       -0.22705616 0.042438112 0.4011024 -0.29906636
0000d0 26 bd da bc 77 bb a4 be 42 34 16 be fa 00 e4 bd
       -0.026701521 -0.32174274 -0.14668372 -0.11132999
0000e0 46 b4 0b 3d 87 93 19 bf e5 70 b6 bd fb 0d 38 be
       0.03410747 -0.59990734 -0.08908252 -0.17974083
0000f0 bf 3b 04 3e 27 30 a0 be 0e 41 81 be 63 4c e3 bd
       0.12913416 -0.31286737 -0.25244945 -0.11098554
000100 79 2e d8 3c b5 96 51 3d 13 2b c7 be 32 6a a5 3d
       0.026389347 0.051169116 -0.3890005 0.08076896
000110 96 f2 c1 3d 27 86 28 be 1e 9c 59 3d 8f 0f d9 be
       0.09470098 -0.16457425 0.0531274 -0.42394683
000120 0a 8a e8 3c 4a 0a f6 bd 50 7a 0d be 32 b0 fb 3c
       0.028386135 -0.12013681 -0.1381619 0.030723665
000130 43 12 3f bd 2a 3d 75 be c6 19 46 3c c0 ec f4 3c
       -0.046648275 -0.23949113 0.012091106 0.029898047
000140 31 f9 db be 13 84 14 bd a1 8c ff bc c8 77 a9 bd
       -0.42963555 -0.03625877 -0.031194987 -0.082747996
000150 68 3f 81 be 91 26 78 3c 9c 74 24 be b7 fa 1c bf
       -0.25243688 0.015145914 -0.16060108 -0.6132006
000160 55 f1 ae 3d e3 5d 5d 3c 06 1c 97 be 87 b2 a9 3e
       0.08542124 0.013511154 -0.29513568 0.33144018
000170 2c 77 8c bd 0b 00 91 be bc 06 ab bc 67 9e f1 3c
       -0.06858668 -0.28320345 -0.020877235 0.029494477
000180 c3 a7 3e be 40 5a ad bd cf b9 72 be 85 d5 b2 3e
       -0.18618684 -0.084644794 -0.23703693 0.34928527
000190 b7 64 a4 bc c4 75 b2 3d 46 84 a4 3d a2 ad df bb
       -0.020067556 0.08713868 0.08033042 -0.0068261186
0001a0 c5 19 65 3d 80 00 60 bc 46 58 f8 be de 28 99 bd
       0.05593278 -0.013671994 -0.48504847 -0.07478498
0001b0 e9 fc c7 3d 5b 38 15 bb 55 c8 7c be 0e e7 8b be
       0.09765036 -0.0022769186 -0.24685796 -0.27324718
0001c0 0e 64 4d 3e 0a 84 ba bd 3c 28 05 3e 80 f3 8d be
       0.20057699 -0.09107216 0.1300363 -0.27724838
0001d0 66 3f f5 be 6e 1c 31 bd 50 ee 25 bd 0b 64 1b bd
       -0.47899932 -0.043240003 -0.040510476 -0.037937205
0001e0 28 47 88 bb f6 3d 93 be 60 e5 8b bd 93 a9 68 be
       -0.004158873 -0.2875821 -0.06830859 -0.22720937
0001f0 61 0f 79 bd 0f 9c 67 bd f3 99 cb 3e d1 6e 5b be
       -0.060805682 -0.056545313 0.3976589 -0.21428992
000200 dc 6f 2f 3e 3c 6f d3 be b6 a8 a4 3e 25 c5 95 3d
       0.17132515 -0.41295803 0.32159966 0.07312993
000210 4b cc f5 be 6d a9 96 be 06 22 50 3e c0 ee 15 bf
       -0.48007426 -0.29426137 0.20325479 -0.5856743
000220 42 66 88 3e 5e 21 05 3e ca b5 5a 3d 61 b7 34 be
       0.26640517 0.1300101 0.053396024 -0.17648079
000230 cf 11 ab 3b 52 9b 00 bd 50 2d 16 3e 50 84 8f 3d
       0.005220629 -0.031398125 0.14665723 0.070076585
000240 7a c7 23 bf 33 3f 43 be e5 03 0b be 63 22 98 3d
       -0.6397625 -0.19067077 -0.13575704 0.07428434
000250 79 77 5b be c0 44 4e be b2 1c 84 bd 44 7f de be
       -0.21432294 -0.20143414 -0.06450786 -0.4345647
000260 af a9 a3 be 2a 27 90 bd b5 19 ca 3e 73 4c 6a be
       -0.31965396 -0.0703872 0.39472738 -0.22880726
000270 4c a1 d1 be 08 34 0b 3e a4 e7 49 bd 60 b8 0a bd
       -0.40943372 0.13594067 -0.049293175 -0.03386724
000280 7e 7e b1 3c b7 f3 14 bf 0c 80 0c be 6e 38 b5 3d
       0.021666761 -0.5818438 -0.13720721 0.08848654
000290 d2 91 2e be 23 5e 13 be 6c 4e 66 3c 59 8f 82 be
       -0.17047814 -0.14391379 0.014056783 -0.2549999
0002a0 21 90 19 bf 35 9c 78 be a0 7f 1e bf f8 55 7e be
       -0.5998555 -0.24278338 -0.6191349 -0.24837482
0002b0 4b 4a af bd 8b 6a 07 bf 53 5d 1c be 50 1c e6 3d
       -0.08559092 -0.52896947 -0.15269975 0.11235869
0002c0 e6 22 39 3e c3 14 61 be bf a5 58 be 27 8d 80 bf
       0.18079719 -0.21980576 -0.21156977 -1.0043076
0002d0 27 fd 87 3e 53 66 65 3e b9 a9 0d 3d db de e0 bb
       0.26560327 0.22402315 0.03458569 -0.006862504
0002e0 ff ff cf bd 7e d6 45 3e 08 ba 4d bc 0a 33 29 be
       -0.10156249 0.19320104 -0.01255656 -0.16523376
0002f0 f8 17 8b be 18 3d e4 3b c1 18 84 bd af 3e 49 bd
       -0.27166724 0.0069652908 -0.06450034 -0.049132045
000300 57 35 89 3c e7 88 b1 bd fd 04 d5 3c 34 64 09 bf
       0.016749067 -0.0866869 0.026003355 -0.5366852
000310 98 8c 49 3e 3b af 9e 3c b2 ca 16 3b 46 62 ed bd
       0.19682539 0.019370666 0.0023009 -0.1159101
000320 4c 0d e5 bc ee e5 d8 bb e1 63 a3 bd 38 5f 71 3d
       -0.027960442 -0.0066192066 -0.07978035 0.0589287
000330 8a 57 c9 be ac 5d c6 ba 70 43 87 3c 2f 6a 1c bd
       -0.393246 -0.0015134118 0.016511649 -0.038187202
000340 53 3e 83 3e 0d d8 14 be c5 02 dd bc 5c 41 9b 3d
       0.25633487 -0.14535542 -0.02697886 0.07580826
000350 35 27 9f bd 26 ed 1f be 86 25 04 bd 65 1e 78 bb
       -0.0777115 -0.15617809 -0.032262348 -0.0037859913
000360 94 0c 08 be 72 2e 2a be 23 c1 5e 3e ad 09 1f 3d
       -0.13286048 -0.1661928 0.21753363 0.038827587
000370 7e 2a ae be 3f 84 f1 be 4a 88 ca bd b6 2f fd be
       -0.34016794 -0.47171208 -0.09889276 -0.49450463
000380 02 85 fe bc 17 18 aa 3d cf 02 0b bf 3a 8f 9b be
       -0.031069282 0.08305376 -0.5430116 -0.3038271
000390 52 b4 d8 bd a4 e5 fc bd d0 66 bc be 5d 57 fa be
       -0.10581268 -0.12348488 -0.3679719 -0.48894778
0003a0 03 33 4e 3d 63 dc 74 bd 13 c8 89 3e 8a 7c f1 be
       0.050341617 -0.05978049 0.26910457 -0.47165328
0003b0 f9 6a c9 be 9e a2 2e 3e ac e1 11 bf 16 c9 37 3e
       -0.39339426 0.17054221 -0.5698497 0.17947802
0003c0 2d 22 2a bf db 11 e8 be e4 93 f5 be dd 08 ea 3c
       -0.664584 -0.45326123 -0.47964394 0.02856868
0003d0 55 15 d0 bd d0 9c ba 3e f0 05 c7 bc cd 2b 00 bd
       -0.10160319 0.36447763 -0.024294823 -0.03129177
0003e0 a2 52 6c be 1c 92 a7 be 79 e9 07 3b 65 67 1a 3d
       -0.23078397 -0.3272866 0.0020738526 0.03769626
0003f0 55 1f 0e be 4e 02 44 bc 86 dc 0b bf 3d 03 48 be
       -0.1387914 -0.01196344 -0.5463337 -0.19532485

bias f4 [10]
000000 fe 5e 8f be a0 0b b2 be 36 0c 4c be 3d d0 cd be
       -0.2800216 -0.34774494 -0.19926533 -0.40197936
000010 af 3a 3d bc 4f e7 72 3e a3 bd 07 bf a9 c8 8f be
       -0.011549636 0.2372105 -0.5302374 -0.2808278
000020 10 ba 9a 3f f8 5c 46 3e
       1.2088032 0.19371402
